…
        "  model.compile(loss=loss_fn, optimizer='adam', metrics=['accuracy']) \n",
        "\n",
        "  return model\n",
        "model = my_cnn()\n",
        "model.summary()"
      ],
      "execution_count": null,
      "outputs": [
        {
          "output_type": "stream",
          "text": [
            "Model: \"sequential_2\"\n",
            "_________________________________________________________________\n",
            "Layer (type)                 Output Shape              Param #   \n",
            "=================================================================\n",
            "reshape_2 (Reshape)          (None, 257, 97, 1)        0         \n",
            "_________________________________________________________________\n",
            "conv2d_10 (Conv2D)           (None, 257, 97, 12)       120       \n",
            "_________________________________________________________________\n",
            "batch_normalization_10 (Batc (None, 257, 97, 12)       48        \n",
            "_________________________________________________________________\n",
            "activation_12 (Activation)   (None, 257, 97, 12)       0         \n",
            "_________________________________________________________________\n",
            "max_pooling2d_6 (MaxPooling2 (None, 129, 49, 12)       0         \n",
            "_________________________________________________________________\n",
            "conv2d_11 (Conv2D)           (None, 129, 49, 24)       2616      \n",
            "_________________________________________________________________\n",
            "batch_normalization_11 (Batc (None, 129, 49, 24)       96        \n",
            "_________________________________________________________________\n",
            "activation_13 (Activation)   (None, 129, 49, 24)       0         \n",
            "_________________________________________________________________\n",
            "max_pooling2d_7 (MaxPooling2 (None, 65, 25, 24)        0         \n",
            "_________________________________________________________________\n",
            "conv2d_12 (Conv2D)           (None, 65, 25, 48)        10416     \n",
            "_________________________________________________________________\n",
            "batch_normalization_12 (Batc (None, 65, 25, 48)        192       \n",
            "_________________________________________________________________\n",
            "activation_14 (Activation)   (None, 65, 25, 48)        0         \n",
            "_________________________________________________________________\n",
            "max_pooling2d_8 (MaxPooling2 (None, 33, 13, 48)        0         \n",
            "_________________________________________________________________\n",
            "conv2d_13 (Conv2D)           (None, 33, 13, 48)        20784     \n",
            "_________________________________________________________________\n",
            "batch_normalization_13 (Batc (None, 33, 13, 48)        192       \n",
            "_________________________________________________________________\n",
            "activation_15 (Activation)   (None, 33, 13, 48)        0         \n",
            "_________________________________________________________________\n",
            "conv2d_14 (Conv2D)           (None, 33, 13, 48)        20784     \n",
            "_________________________________________________________________\n",
            "batch_normalization_14 (Batc (None, 33, 13, 48)        192       \n",
            "_________________________________________________________________\n",
            "activation_16 (Activation)   (None, 33, 13, 48)        0         \n",
            "_________________________________________________________________\n",
            "global_max_pooling2d_2 (Glob (None, 48)                0         \n",
            "_________________________________________________________________\n",
            "dropout_2 (Dropout)          (None, 48)                0         \n",
            "_________________________________________________________________\n",
            "dense_4 (Dense)              (None, 12)                588       \n",
            "_________________________________________________________________\n",
            "dense_5 (Dense)              (None, 12)                156       \n",
            "_________________________________________________________________\n",
            "activation_17 (Activation)   (None, 12)                0         \n",
            "=================================================================\n",
            "Total params: 56,184\n",
            "Trainable params: 55,824\n",
            "Non-trainable params: 360\n",
            "_________________________________________________________________\n"
          ],
          "name": "stdout"
        }
      ]
    },
    {
      "cell_type": "markdown",
…
